…
Loaded 9.944444444444345s. motion from /home/huh/software/motion_rl/humanoid-gym/datasets/duzl_0205_hybrid_armj4_walkturn_waist_offset/walk15_scale2_20260202_mj_260204_1712_mirrored.json.
Loaded 19.755555555555357s. motion from /home/huh/software/motion_rl/humanoid-gym/datasets/duzl_0205_hybrid_armj4_walkturn_waist_offset/walkturn03_waist_pitch_offset_20260202_mj_260205_2130.json.
Loaded 19.755555555555357s. motion from /home/huh/software/motion_rl/humanoid-gym/datasets/duzl_0205_hybrid_armj4_walkturn_waist_offset/walkturn03_waist_pitch_offset_20260202_mj_260205_2130_mirrored.json.
'train_cfg' provided -> Ignoring 'name=r01_v12_amp_with_4dof_arms_and_head_full_scenes'
Actor MLP: ActorNet(
  (adaptation_module): Sequential(
    (0): Linear(in_features=1440, out_features=256, bias=True)
    (1): ELU(alpha=1.0)
    (2): Linear(in_features=256, out_features=32, bias=True)
    (3): ELU(alpha=1.0)
    (4): Linear(in_features=32, out_features=18, bias=True)
  )
  (actor_body): Sequential(
    (0): Linear(in_features=114, out_features=512, bias=True)
    (1): ELU(alpha=1.0)
    (2): Linear(in_features=512, out_features=256, bias=True)
    (3): ELU(alpha=1.0)
    (4): Linear(in_features=256, out_features=128, bias=True)
    (5): ELU(alpha=1.0)
    (6): Linear(in_features=128, out_features=27, bias=True)
  )
)
env encoder: Sequential(
  (0): Linear(in_features=233, out_features=256, bias=True)
  (1): ELU(alpha=1.0)
  (2): Linear(in_features=256, out_features=128, bias=True)
  (3): ELU(alpha=1.0)
  (4): Linear(in_features=128, out_features=18, bias=True)
)
Critic MLP: Sequential(
  (0): Linear(in_features=18, out_features=768, bias=True)
  (1): ELU(alpha=1.0)
  (2): Linear(in_features=768, out_features=768, bias=True)
  (3): ELU(alpha=1.0)
  (4): Linear(in_features=768, out_features=128, bias=True)
  (5): ELU(alpha=1.0)
  (6): Linear(in_features=128, out_features=1, bias=True)
)
Loading model from: /home/huh/software/motion_rl/model_9442_best_k_value=52.954.pt
[play.py] train_cfg.runner_class_name: AMPOnPolicyRunner
[play.py] evaluation_folder_dir: /home/huh/software/motion_rl/model_9442_best_k_value=52.954/default_2026Mar13_14-30-33
  0%|          | 0/100000000 [00:00<?, ?it/s]  0%|          | 1/100000000 [00:00<4626:10:28,
…
